…
g=\"same\"),\n","        layers.LeakyReLU(alpha=0.2),\n","        layers.Flatten(),\n","        layers.Dropout(0.2),\n","        layers.Dense(1, activation=\"sigmoid\"),\n","    ],\n","    name=\"discriminator\",\n",")\n","discriminator.summary()"],"execution_count":null,"outputs":[{"output_type":"stream","name":"stdout","text":["Model: \"discriminator\"\n","_________________________________________________________________\n"," Layer (type)                Output Shape              Param #   \n","=================================================================\n"," conv2d (Conv2D)             (None, 32, 32, 64)        3136      \n","                                                                 \n"," leaky_re_lu (LeakyReLU)     (None, 32, 32, 64)        0         \n","                                                                 \n"," conv2d_1 (Conv2D)           (None, 16, 16, 128)       131200    \n","                                                                 \n"," leaky_re_lu_1 (LeakyReLU)   (None, 16, 16, 128)       0         \n","                                                                 \n"," conv2d_2 (Conv2D)           (None, 8, 8, 128)         262272    \n","                                                                 \n"," leaky_re_lu_2 (LeakyReLU)   (None, 8, 8, 128)         0         \n","                                                                 \n"," flatten (Flatten)           (None, 8192)              0         \n","                                                                 \n"," dropout (Dropout)           (None, 8192)              0         \n","                                                                 \n"," dense (Dense)               (None, 1)                 8193      \n","                                                                 \n","=================================================================\n","Total params: 404,801\n","Trainable params: 404,801\n","Non-trainable params: 0\n","_________________________________________________________________\n"]}]},{"cell_type":"markdown","metadata":{"id":"btc3BPUkjaFK"},"source":["## Create the generator\
…
ose(512, kernel_size=4, strides=2, padding=\"same\"),\n","        layers.LeakyReLU(alpha=0.2),\n","        layers.Conv2D(3, kernel_size=5, padding=\"same\", activation=\"sigmoid\"),\n","    ],\n","    name=\"generator\",\n",")\n","generator.summary()"],"execution_count":null,"outputs":[{"output_type":"stream","name":"stdout","text":["Model: \"generator\"\n","_________________________________________________________________\n"," Layer (type)                Output Shape              Param #   \n","=================================================================\n"," dense_1 (Dense)             (None, 8192)              1056768   \n","                                                                 \n"," reshape (Reshape)           (None, 8, 8, 128)         0         \n","                                                                 \n"," conv2d_transpose (Conv2DTra  (None, 16, 16, 128)      262272    \n"," nspose)                                                         \n","                                                                 \n"," leaky_re_lu_3 (LeakyReLU)   (None, 16, 16, 128)       0         \n","                                                                 \n"," conv2d_transpose_1 (Conv2DT  (None, 32, 32, 256)      524544    \n"," ranspose)                                                       \n","                                                                 \n"," leaky_re_lu_4 (LeakyReLU)   (None, 32, 32, 256)       0         \n","                                                                 \n"," conv2d_transpose_2 (Conv2DT  (None, 64, 64, 512)      2097664   \n"," ranspose)                                                       \n","                                                                 \n"," leaky_re_lu_5 (LeakyReLU)   (None, 64, 64, 512)       0         \n","                                                                 \n"," conv2d_3 (Conv2D)           (None, 64, 64, 3)         38403     \n","                                                                 \n","=================================================================\n","Total params: 3,979,651\n","Trainable params: 3,979,651\n","Non-trainable params: 0\n","_________________________________________________________________\n"]}]},{"cell_type":"markdown","metadata":{"id":"1AOnM-xIjaFL"},"source":["## Override `train_st
…
